MNIST_Model_Optimized.pt (torch, 440471 bytes, 6 tensors)

weight f4 [128, 784]
000000 b2 9e 7c bc b6 18 db bc e6 83 87 3c 45 39 0f 3c
       -0.015418695 -0.026745182 0.016542386 0.008741681
000010 5d 46 c5 3c f3 ad 08 bd 8e 0c 17 3b f4 f1 04 3d
       0.024081403 -0.033369016 0.0023048255 0.032457307
000020 fd 15 96 bc 61 50 95 bc fc fc 11 3d ea ce bf 3b
       -0.018321032 -0.018226804 0.035641655 0.0058535235
000030 12 f8 97 3c 1b 54 b7 39 bd b8 c6 3c 7d 45 a0 bc
       0.018550906 0.00034967143 0.024258012 -0.019564385
000040 f2 51 d5 3c 57 b6 c1 bb 61 b2 55 bc ab 74 92 bc
       0.026040051 -0.005911629 -0.013043017 -0.017877897
000050 24 df a0 bc 94 a6 f5 bb ef e6 af bc 7c fe fa 3b
       -0.019637652 -0.0074966643 -0.021472422 0.0076597314
000060 0d 60 93 3c bc 60 59 bb e0 d5 8b bb 4e 3b a3 3b
       0.017990137 -0.003316923 -0.0042674392 0.004981435
000070 85 61 c4 bb 3d b7 8b 3c 88 65 d3 bc bd 8a a9 3c
       -0.0059930705 0.017055148 -0.02580525 0.020696038
000080 a9 2c f9 3c 0d f6 c1 3c 93 c8 7a 3c 80 36 b8 3c
       0.030416803 0.023676896 0.01530661 0.022486925
000090 d9 bf 0f 3d 0a 9c 9e 3b c7 9e 88 3c 7f 8e 3f bc
       0.03509507 0.0048403786 0.016677273 -0.011691689
0000a0 bf 41 08 3d 9d 5a 6e bc ca ab 47 bc e7 41 dc 3c
       0.033265825 -0.014547971 -0.012186954 0.026886893
0000b0 ad 24 41 3c 29 ec 50 bc fa 5b ea bc f2 05 b1 ba
       0.011788529 -0.0127516175 -0.028608311 -0.00135058
0000c0 2c ef 87 bc 57 9f ee 3b 0f 11 5c bc a0 a5 24 3c
       -0.016593538 0.0072821784 -0.013431801 0.010049254
0000d0 3b 40 dc bc 3f 65 ff bc 99 f7 87 3c 24 2b 88 3b
       -0.026886096 -0.031176208 0.016597556 0.0041555334
0000e0 4e 54 34 3c 52 e2 9e 3c e0 5f dc 3c cd 4c 02 3d
       0.011006428 0.019395027 0.026901186 0.031811524
0000f0 cc c7 8e bc 02 fc 5b ba c0 fd d0 bc 67 79 f2 ba
       -0.017429255 -0.0008391739 -0.025511622 -0.0018499315
000100 aa 87 d0 bc f5 04 0d 3d 9c 55 a0 bc 89 72 a4 3c
       -0.025455315 0.034428556 -0.019572072 0.020074146
000110 2d f8 0b 3d 0a 7b 34 bc 3d 31 28 bc e0 ac e6 3c
       0.034172226 -0.011015663 -0.010265646 0.028158605
000120 c1 06 c7 bc 62 c6 53 bc 3e e6 79 3c 02 f9 6f bc
       -0.024295213 -0.012925716 0.015252648 -0.01464677
000130 8e 28 8f 3c c6 6b 84 bb 12 20 b1 3c d4 f8 74 3c
       0.017475393 -0.004041168 0.021621738 0.014951903
000140 da 9b 06 3d 95 59 7d 3c 87 92 c5 3a 44 a4 a0 3c
       0.032863475 0.015463253 0.0015073576 0.019609578
000150 4c 25 c9 39 86 56 80 bc 1c 62 0c 3d cc 3e 03 bc
       0.00038365496 -0.015666258 0.034273252 -0.008010577
000160 67 17 fc 3c b2 8b 14 3c 49 e9 04 3d 78 a1 95 bc
       0.030772878 0.009066509 0.03244904 -0.01826547
000170 e9 20 97 3c 21 70 07 3d 49 d6 c1 bb cf 75 f8 bc
       0.01844831 0.03306592 -0.0059154374 -0.030329613
000180 f8 b5 8f 3a 77 cb 53 bc a4 d5 4a 3c d0 1b ed bb
       0.0010964265 -0.012926928 0.012380037 -0.0072359815
000190 e1 60 10 3c f5 c3 79 3c cf bc e9 3c fb aa 64 3c
       0.00881216 0.015244474 0.028532414 0.013956781
0001a0 e4 0a b5 3b fd b7 0d 3d 8e 71 11 bd d0 9a 88 bb
       0.00552498 0.034599293 -0.035508685 -0.0041688457
0001b0 f2 b1 ba 3b 0d 66 11 3d 5c c3 06 3d 29 d6 2f 3c
       0.0056974823 0.035497714 0.032901153 0.010732212
0001c0 36 32 0e 3d 5d 91 f5 bc d4 a0 2e bb a9 5e 9c bc
       0.034715854 -0.029976541 -0.0026646154 -0.019088106
0001d0 c4 21 81 3c 9c f8 db bc 5e 30 87 bc 35 ec a2 bc
       0.015763171 -0.026851945 -0.016502555 -0.019888023
0001e0 89 69 32 bc 69 3d c2 3b 63 1f 87 bc 9a 42 ed 3a
       -0.010889419 0.005927731 -0.016494459 0.0018101514
0001f0 fc d0 d2 bb ce 2c ac 3c 47 42 b8 bb db be bb 3c
       -0.0064336043 0.021017458 -0.0056231353 0.022918155
000200 ac 6a 06 3d 91 60 1e 3c 3c 8d 12 3c 68 38 83 bc
       0.032816574 0.009666578 0.008944806 -0.016018108
000210 02 76 cf ba c9 ee 7c ba 68 52 63 3c ca 2e 87 bc
       -0.0015828016 -0.0009648619 0.013874628 -0.016501803
000220 b4 cb 02 3c d7 09 ad bb 65 59 37 3c f3 a5 66 3c
       0.007983137 -0.005280714 0.011190747 0.014077651
000230 53 c2 42 bc f6 0f ed bc 25 dd 9f 3c b1 00 6a 3b
       -0.011887151 -0.028938275 0.01951463 0.0035705979
000240 64 13 10 3d b4 f4 38 3b 22 a8 09 3d d0 36 69 3b
       0.035174742 0.0028222026 0.03360761 0.003558565
000250 df 56 81 3c d7 01 05 bc cb 81 b2 bc 77 bf 67 3c
       0.015788494 -0.008118114 -0.021790406 0.01414477
000260 63 36 b1 3c a1 f2 e4 bc ff c7 eb 3c e7 d9 85 3b
       0.021632379 -0.027947726 0.028781889 0.004084814
000270 f2 a8 0a 3d 01 10 1d bc a4 cd 87 3c b6 39 48 bc
       0.033852525 -0.009586335 0.01657755 -0.012220791
000280 62 44 68 3c aa ae f9 3b 90 21 d6 3c 5b 55 8c bc
       0.01417646 0.0076196985 0.02613905 -0.017130544
000290 df 0d 48 bc 37 4a 45 3c d0 a8 3a bb 36 55 91 bc
       -0.012210338 0.01204162 -0.0028481968 -0.017740827
0002a0 ed d8 bc bc 15 62 00 bd 69 72 10 bd f9 cd 9a 3b
       -0.023052657 -0.03134354 -0.03526536 0.004724261
0002b0 7b ca 9d bc 31 ea ad 3c 3a de f0 bb 08 32 ca bc
       -0.01926159 0.021229835 -0.00735071 -0.02468206
0002c0 14 5f d5 3c a4 5f bc bc d0 5b cb 3b 87 1b cb bc
       0.026046313 -0.022994824 0.0062060133 -0.0247934
0002d0 2e 73 87 bc 34 c6 17 bb 2b 9d 2d ba 95 38 0e 3c
       -0.016534414 -0.002315891 -0.0006622846 0.008680482
0002e0 08 fa ad 3b 1d 61 f3 3c b6 2b 3c bc e3 b3 93 3c
       0.005309347 0.029709393 -0.011485031 0.018030113
0002f0 de 6e cb 3c d3 c0 d7 3c 54 46 45 3c c7 dc cf 3c
       0.024833139 0.026337063 0.012040693 0.02537383
000300 8d 62 d6 3c bc 92 c1 bc 7d 5c bb 3c 26 71 19 37
       0.02617004 -0.023629539 0.02287125 9.145855e-06
000310 e9 75 7b 3c 7b 97 08 3c e4 81 07 3d 91 8d 0d bd
       0.015347936 0.008336897 0.033082858 -0.034558836
000320 1d 22 18 3c 97 25 26 bc ac 81 9c 3c f3 bf 63 bb
       0.009285477 -0.010140798 0.019104801 -0.0034751862
000330 13 67 9f 3c 2d 6e 9c bc 0e 63 ec bc d8 c8 22 3c
       0.01945833 -0.019095505 -0.028855827 0.00993558
000340 3b bd 42 bc d4 0b 08 3c 80 98 97 3c cf 26 22 bc
       -0.011885936 0.008303601 0.018505335 -0.009896948
000350 f7 3a 9b 3c dc 1e a4 bc fd 2c 8a bc 93 b2 c9 3c
       0.018949015 -0.020034246 -0.016867155 0.024621284
000360 14 6d 3b 3c e0 a8 32 bc 8d ac b6 3c c7 77 33 3c
       0.0114395805 -0.010904521 0.022299075 0.01095385
000370 dc 79 4e 3a 42 50 a4 3c 9b 3d 02 bc e3 29 03 3d
       0.0007876435 0.020057801 -0.007949258 0.03202237
000380 6f f8 d0 bc 0d 1c a3 bc 12 f3 aa bc f1 73 0d 3d
       -0.025509087 -0.019910837 -0.020867858 0.0345344
000390 5f cc 0b 3d fe 77 e5 bc 7a 7f a9 bc e2 ba 85 bc
       0.03413045 -0.028011318 -0.020690668 -0.016324464
0003a0 05 f1 a6 3c 3d f6 8c 3a 12 0d dc bc 17 f4 ce bc
       0.020378599 0.0010754537 -0.026861701 -0.025262875
0003b0 0d b3 62 bc 7c 31 b4 3c dc 50 e6 3c 31 0d 97 3a
       -0.013836634 0.021996252 0.028114729 0.0011524317
0003c0 c0 a3 dd bc 20 2f b9 bc ad e6 cf bc 13 59 d4 3c
       -0.027055621 -0.022605479 -0.02537855 0.02592138
0003d0 35 22 0f 3c 2f 21 bd bc 04 d2 13 bd 83 5a 04 3d
       0.008736183 -0.023087112 -0.03608896 0.03231288
0003e0 c5 d1 10 bd 7b 60 b0 b9 3d 78 93 3c ff b2 02 3d
       -0.0353563 -0.0003364122 0.01800167 0.031908985
0003f0 f9 cb aa 3c 0f 65 50 bc 28 4c ff 3b 9c 17 46 3c
       0.020849215 -0.012719407 0.007791061 0.01209059

bias f4 [128]
000000 b1 1f c8 3a 8d df ab 3c 13 5d 1d 3b e6 61 71 bc
       0.0015268234 0.02098062 0.0024011775 -0.014732813
000010 fb 0d ce 3c 21 ee ba bc bc ad 15 3d 99 50 3f 3b
       0.02515315 -0.022818627 0.03654264 0.0029192327
000020 33 78 d9 3c 3b 44 97 3c ac 40 e4 3c f8 18 e1 39
       0.026546573 0.018465152 0.02786287 0.00042933947
000030 7a cd 10 bb 01 95 44 3c 45 18 c7 bb 7f 6d cd bc
       -0.002209513 0.011998416 -0.006075891 -0.025076626
000040 af 93 4e 3c 6f ef 95 bc 79 43 38 bc 7f 77 e7 ba
       0.012608453 -0.018302647 -0.0112465555 -0.0017659514
000050 4e 54 88 bc 38 c3 7f bc 84 3b 85 3c ce 62 d4 3c
       -0.016641762 -0.015610509 0.01626373 0.02592602
000060 8d 89 8b bc a5 ee 09 bd b8 7d e6 b9 ac dc 72 bc
       -0.017033363 -0.033674855 -0.00043962686 -0.01482312
000070 67 02 11 3b 7a 9e 22 3d 2c d3 ba bc b7 96 15 b8
       0.0022126676 0.039701916 -0.022805773 -3.5664732e-05
000080 2b ea 95 3c ad 1c 03 3c db c3 b1 3b 36 aa 77 3c
       0.018300137 0.008002442 0.005424959 0.015116265
000090 8d 3f 97 b8 1a 71 30 3c c8 04 e3 bc 2f 62 d0 3c
       -7.212078e-05 0.010769153 -0.02771224 0.025437443
0000a0 09 2b 85 bc a7 06 d6 3c 98 34 6a bc 53 2d 5e 3b
       -0.016255872 0.026126219 -0.014294766 0.0033901527
0000b0 76 bc e2 bc a8 80 ab bc 0a 8c fb 3b 17 6a f1 3c
       -0.027677756 -0.020935372 0.007676606 0.029469533
0000c0 ed 74 0a bb 96 1f 39 bc 2b 8c 97 ba 7a ba 7b bc
       -0.0021126822 -0.011299035 -0.0011562159 -0.015364284
0000d0 a6 2f d9 3c f8 af 84 3c 40 26 6c 3c 1b a4 70 3c
       0.026511978 0.01619719 0.014413416 0.014687563
0000e0 c8 03 fe 3c 76 43 de 3c 90 11 b1 bc a6 6c be 3c
       0.031007662 0.027131777 -0.02161482 0.023245167
0000f0 0f cb e5 3c 20 8f 56 bc 21 22 d4 bc 06 d0 d7 3c
       0.028050927 -0.013095647 -0.02589518 0.02634431
000100 bf 6d 14 3c 74 d6 8a 3c 1f 94 8a bc 53 56 fe 3b
       0.009059369 0.016947962 -0.016916333 0.0077617555
000110 dc 52 db 3b b6 a5 cb 3b 51 3f 9d 3c e7 4f 12 3c
       0.006693227 0.0062148226 0.01919523 0.008930183
000120 56 8a 52 bc c8 4d bc 3c 18 4d 23 bc a8 a7 a9 bc
       -0.012850365 0.022986308 -0.009967111 -0.020709828
000130 b4 cd 32 3c f6 e9 69 bb 8f ec c7 bc 2f 03 8b bb
       0.010913301 -0.003569243 -0.024404792 -0.004242323
000140 76 98 b9 bc 92 60 f9 bc f4 c6 99 bc b2 6a 40 bc
       -0.022655707 -0.030441556 -0.018771626 -0.011744188
000150 2a 2e 96 3c 67 91 d1 3c 0f 3c 24 3c 8d 6f c4 bc
       0.01833256 0.025582029 0.010024085 -0.023978973
000160 16 2f 47 3c e2 82 1c 3d 43 d6 92 bb 81 e1 27 3c
       0.012157222 0.038210757 -0.0044811084 0.010246635
000170 31 f7 d5 bb 7d 2e a2 3b 53 fa a2 bc ae 66 c1 bc
       -0.0065297117 0.0049493895 -0.019894755 -0.023608532
000180 9e d6 8a 3c 47 72 3e bc ca a2 a9 bc 9a 91 0d 3d
       0.01694804 -0.0116239255 -0.020707507 0.034562685
000190 ff 53 48 bb 08 2d 01 ba c8 c5 09 bd 75 90 c9 3c
       -0.0030567644 -0.00049276697 -0.033635885 0.024605015
0001a0 84 71 3d bc fb 82 06 3b 89 51 f2 bc e3 8d 0c bd
       -0.011562709 0.0020524848 -0.029579895 -0.034315
0001b0 b0 0a ac 3b 29 f9 ad bc 8c 6e 9f bc 50 95 5b 3b
       0.0052502975 -0.021236973 -0.019461893 0.0033505745
0001c0 51 26 4c bc 05 56 d2 3c f0 24 b7 3c 5b b8 21 3d
       -0.012460307 0.025675783 0.02235648 0.039482456
0001d0 04 f2 fd bc 04 3e 99 3c bd 78 a3 3c 81 70 e9 bc
       -0.030999191 0.01870633 0.019955033 -0.028496029
0001e0 b1 23 bd 3c cd 13 36 3c 98 c6 8f bc 43 1c 8b 3c
       0.023088308 0.011113119 -0.017550752 0.01698125
0001f0 c7 12 3f 3c f9 4f 5e 3c 1e af 8f b9 fd f8 54 bc
       0.011662192 0.013568872 -0.00027405558 -0.012998817

weight f4 [64, 128]
000000 73 26 a1 3d 66 ee a0 bd 5e 61 4b bd a6 cf 2e bd
       0.07868662 -0.07857971 -0.049653403 -0.042678498
000010 9e d2 91 3d 82 4e bc 3d 60 b8 27 bd 10 b2 a9 3c
       0.0712025 0.09194662 -0.040947318 0.02071479
000020 a0 9b be bb a6 c5 a5 bd 1e c5 8c bb d2 4f 49 3d
       -0.005816892 -0.08094339 -0.004295959 0.04914839
000030 a2 0a 0b ba 4a bc 43 bd fc d9 aa 3c fe fa 8c bd
       -0.00053040136 -0.04778699 0.020855896 -0.068838105
000040 a3 af b1 bd 91 73 c8 bd 5b 9b 92 bd b2 e0 9c bd
       -0.08676078 -0.097876675 -0.07158538 -0.07660045
000050 39 6b 99 3d a9 de e4 bc 30 04 94 3d b4 55 d1 bd
       0.07491154 -0.027938204 0.07227361 -0.10221425
000060 75 62 46 bd 84 30 d6 bc 25 ad 4f 3d 65 56 71 3d
       -0.04843374 -0.02614618 0.050702233 0.058920283
000070 a0 9b a5 bd 66 74 d4 3d c5 ca 39 bc fb 9e f1 bd
       -0.08086324 0.10373764 -0.011339848 -0.11797901
000080 9b 9c 9d 3d 4b 34 69 bd a7 1f 87 bd a5 76 49 3d
       0.07695886 -0.056934636 -0.06597834 0.049185414
000090 e2 c1 d2 3c 3b 57 a7 bd 95 77 4a 3d ff 0a b9 bb
       0.025727216 -0.08170935 0.04943045 -0.005647063
0000a0 5c 91 8f 3d 1f 41 2d 3d bc d7 30 3e dc eb e4 bd
       0.07010147 0.042298432 0.17269796 -0.11177799
0000b0 1c 1f 5e bd f8 60 a3 3d 52 44 84 bd e6 22 35 be
       -0.054228887 0.0797748 -0.064583436 -0.17689094
0000c0 b5 3f 4e bc 08 9d bd 3d 5d f7 12 bd f7 cf 5a 3c
       -0.012588431 0.09258467 -0.035880435 0.013355247
0000d0 37 7b 2c bd e3 73 0c 3c e6 3a 6f bd a6 68 1c 3d
       -0.042109694 0.008572551 -0.05840578 0.038185738
0000e0 8f e1 0e 3e e4 ea 94 bd e4 7b 34 3d b9 9e ae bb
       0.13953231 -0.07271364 0.044063464 -0.00532898
0000f0 96 76 d1 3d 54 2f 9a 3d 61 be 81 bd 13 1a ba 3c
       0.102276966 0.075285584 -0.0633514 0.022717511
000100 c0 f7 16 3e 51 85 83 3c f3 46 b7 3d cf 6a 02 3d
       0.14742947 0.016054781 0.08949079 0.03184014
000110 8b 86 59 3d ad 63 02 be 8b a4 01 3d a6 2c a2 3d
       0.053106826 -0.12733336 0.03165106 0.07918672
000120 98 ae cd 3d ac 5d 27 bd 81 07 58 bd b9 b6 4d bd
       0.10043067 -0.040860817 -0.05274153 -0.050223086
000130 d1 a7 b4 3c 43 3a 9f bd bf 22 18 bd 26 a4 0a 3b
       0.022052677 -0.077747844 -0.03714251 0.002115497
000140 80 38 a5 3d c5 30 77 bd 80 8e 7d 3d 4e bc 7f bd
       0.08067417 -0.060349245 0.061903477 -0.06243544
000150 71 58 aa bd 27 b8 ae 3d 4d ba 81 bd dc 3b ae 3c
       -0.0831765 0.08531218 -0.06334362 0.021268778
000160 ea 50 ad bd c8 be 51 bd b2 b7 4a 3d e0 a4 81 3b
       -0.08462699 -0.051207334 0.04949159 0.003956422
000170 d9 b4 06 3e 73 b9 b2 3d 18 2e a0 3d 87 a3 a0 bc
       0.13154925 0.08726778 0.07821292 -0.019609226
000180 34 15 97 ba 0a 10 84 bd 4c 0b f8 bc 30 23 21 3d
       -0.0011526705 -0.06448372 -0.030278824 0.039340198
000190 c7 f2 c4 3d e5 c4 09 3e 03 72 36 3d 15 77 9b bd
       0.096166186 0.13454016 0.044542324 -0.075910725
0001a0 11 44 c1 3d e9 3a 39 3c 19 6c f5 3d 00 49 2d 3d
       0.09436811 0.011305549 0.119835086 0.042305946
0001b0 ad be 25 bd 79 05 23 3d d5 f0 02 bc 9c 8e 9d bd
       -0.040465046 0.03980014 -0.007991989 -0.07693216
0001c0 02 a0 8a bc 83 22 61 3d 90 35 2d 3d 76 2a e1 bd
       -0.016922 0.054964554 0.04228741 -0.10994427
0001d0 ef 1b 0e 3e b9 88 48 bd dd fe 1f 3d 99 00 fb bc
       0.13877843 -0.048958514 0.039061416 -0.030639933
0001e0 cc 47 09 3d dd c8 70 bd cd c5 94 ba ab e7 97 bc
       0.033515736 -0.05878531 -0.0011350453 -0.018543085
0001f0 96 f5 c6 3b fc 54 c6 3d e2 fb 21 3c f1 3e 1c 3d
       0.0060717566 0.09684178 0.009886714 0.038145963
000200 c7 fd bb bc 71 1b 9b bd 3e 63 92 3b cf 33 05 bd
       -0.022948159 -0.075735934 0.004467397 -0.03252011
000210 bd e2 12 bd cc 02 73 bc b6 c5 30 3c 61 65 18 bc
       -0.035860766 -0.01483221 0.010789325 -0.009301514
000220 1d b9 d1 bd 6c 0d 6b bd a3 55 b3 bc 8b e8 08 3e
       -0.10240386 -0.057385847 -0.02189142 0.13369958
000230 1c 14 97 3b e3 3b cf bd 30 00 48 3d f4 a5 78 bb
       0.0046105515 -0.10118844 0.048828304 -0.0037940713
000240 f4 b1 df bd dd b3 85 bd 95 99 84 bc d0 01 99 3d
       -0.10922614 -0.06528447 -0.016186515 0.07471049
000250 43 1a 27 3d 5f 0c bc 3c d2 b7 97 bc ab 41 eb bd
       0.04079653 0.022955118 -0.01852027 -0.114871345
000260 86 5b 92 3d 52 67 d0 3d b2 34 b3 3a 3a ba a6 3c
       0.07146363 0.10175957 0.0013672321 0.020352472
000270 3c 7a ac bd a4 62 8d bc 1b d8 ae 3d 02 da d1 3d
       -0.08421752 -0.01725895 0.085373126 0.1024666
000280 17 ae e5 3c 42 1f b1 3d 80 6e 87 bd f2 47 01 bd
       0.028037114 0.0864854 -0.06612873 -0.031562753
000290 c9 d1 ab bc 65 eb 42 3d 5d 6a a3 3d 95 75 db 3b
       -0.020974057 0.04758777 0.079792716 0.0066973665
0002a0 63 57 a9 bd 91 cc ea 3c 4a ec 21 3d 89 1b 90 bd
       -0.08268621 0.028661998 0.039531983 -0.07036502
0002b0 1f 74 9e 3d 6c 0b ec 3d 94 c9 42 3d cf 31 9f bd
       0.07736992 0.11525616 0.04755552 -0.07773172
0002c0 2d e8 35 3d 9c 69 40 bc 0b 45 ec 3b 88 46 47 bd
       0.044410873 -0.011743929 0.007210379 -0.04865125
0002d0 08 04 d1 bc 09 b9 a3 3d 77 31 bb bd a0 b9 60 bc
       -0.025514618 0.07994277 -0.09140294 -0.013716131
0002e0 c2 7e 46 3d 98 ca 2e bd 9d 4f 13 3d 3f ad aa bd
       0.04846073 -0.042673677 0.035964597 -0.08333825
0002f0 d7 b8 b0 ba 04 21 da 3d 34 a8 2a be 5a 06 15 bd
       -0.0013482821 0.106508285 -0.16665727 -0.03638301
000300 9d f9 39 3d 43 58 7b bd 56 82 b5 3d f3 75 9d bd
       0.045404065 -0.06136347 0.0886275 -0.07688513
000310 e3 dc 3a 3c ed db c6 bd 45 3f 87 bc 0b 85 80 bd
       0.011405203 -0.09709916 -0.016509661 -0.06275376
000320 df 16 d6 3c e2 de e4 bd bc 8c f7 3c af 16 72 3d
       0.026133953 -0.11175324 0.030218475 0.059103664
000330 60 ff 57 bd b5 7e 2b bd c3 18 8f 3d 49 d5 9e 3d
       -0.05273378 -0.041868884 0.06987145 0.07755525
000340 0d d5 15 bd 26 22 67 3d 88 54 af 3d 20 6a 2c bd
       -0.036580134 0.05642905 0.08561045 -0.042093396
000350 8a 1e f6 bb bd 3e 35 bd 22 6a 99 3c 4a 3d 4b bd
       -0.0075109648 -0.044249285 0.018727366 -0.049618997
000360 8d 8d 0c bd a4 2d ef bd a0 b0 36 bd 57 36 d1 bb
       -0.03431468 -0.11678627 -0.044602036 -0.0063846516
000370 dd 8b 87 bd a0 1b 71 3d d0 da ab 3d 64 70 af 3d
       -0.06618474 0.058864236 0.083913445 0.08566359
000380 4a bb d0 3d f5 3b 4b bd 3a c0 d8 3d 87 4d 62 bd
       0.101919726 -0.049617726 0.10583539 -0.055249717
000390 6b 66 f4 bd fe 40 52 3d 01 23 95 3d a2 69 0d bb
       -0.11933597 0.051331513 0.07282067 -0.0021577855
0003a0 98 98 d6 3d 13 2b 25 3d 0f c4 8d bc 1e 56 c2 bd
       0.10478324 0.040324282 -0.017305402 -0.09489082
0003b0 8b 90 4f bc 1d ea 11 3d 42 9e f2 bb 3c 12 31 bd
       -0.012668739 0.03562366 -0.0074041197 -0.04323028
0003c0 34 67 10 3d 75 6e 8c 3d be f2 c4 3c a4 c5 fb bd
       0.035254672 0.068570055 0.02404153 -0.12293556
0003d0 be 6d d3 3d c3 08 52 3d 4b 4d f6 3d 5d 2b 01 be
       0.10323666 0.051277887 0.12026461 -0.12614198
0003e0 68 03 d3 bc 96 de 60 bd be 8e 81 bd a9 59 a1 3d
       -0.02575846 -0.054899774 -0.06326054 0.078784294
0003f0 60 90 b9 bd ca 67 95 3d 02 67 78 3d 7c 5d ac bb
       -0.090607405 0.07295187 0.06064511 -0.0052601676

bias f4 [64]
000000 4f 6d 79 3d 6f c7 c7 3d e7 aa 95 3d 80 c3 49 3d
       0.06089526 0.09754836 0.07307988 0.04925871
000010 a8 89 94 bd 9e fb 35 3d a3 36 33 bd 58 63 bf 3c
       -0.07252818 0.044429414 -0.043753278 0.0233628
000020 3d 0c d9 bc 47 cb f7 3b 0e 70 ad bd 6b 49 61 bd
       -0.026495093 0.0075620743 -0.08468638 -0.055001657
000030 a2 27 08 3d 08 d0 8f 3d 4f 56 77 3d 9d 40 9a 3d
       0.03324092 0.07022101 0.060385045 0.07531855
000040 d3 5f 92 bd be ca 8d bc 21 73 05 bd 0b a3 b9 bb
       -0.07147183 -0.01730859 -0.0325805 -0.005665188
000050 41 d0 ae 3d 32 8b 69 bc ed e2 ac bc bf ff 89 3c
       0.08535815 -0.014254378 -0.0211043 0.016845582
000060 f1 eb 2d bd da 9b 19 3d ab 35 7f bd 2c eb 04 bd
       -0.04246134 0.037502147 -0.06230704 -0.03245084
000070 a1 a2 80 bd 30 56 94 bb 2e 19 13 ba b8 7a ba 3c
       -0.06281019 -0.004526876 -0.0005611357 0.022763595
000080 43 89 0d bc cc c8 e2 3b 29 89 eb bc f0 99 3c 3a
       -0.008638683 0.0069209095 -0.028751926 0.00071945693
000090 67 9a 70 3d 8c 5c aa 3d 9c 55 56 3d c9 02 06 bc
       0.058741 0.08318433 0.052327737 -0.008179375
0000a0 f2 19 15 bd c2 15 da 3b 3d 5b 8e bc 3d 9c ff 3c
       -0.036401697 0.0066554258 -0.01737749 0.03120243
0000b0 84 a4 b5 3d 03 31 be 3d 0b 4d 18 3d 3c a0 85 b9
       0.088692695 0.09286692 0.03718285 -0.0002548712
0000c0 b2 b2 01 3c 65 e1 af bd a3 99 e5 3c f3 a7 84 3d
       0.007916139 -0.085879125 0.028027361 0.06477346
0000d0 5e f7 f1 bc 88 a9 de 3c 43 29 c5 bc bd 40 3c bd
       -0.0295369 0.027180448 -0.024067527 -0.045960177
0000e0 aa 18 8f 3d 2e 6d 49 3d 34 26 ad 3a 33 06 88 bd
       0.06987126 0.049176387 0.0013210238 -0.066418074
0000f0 98 bd 91 3c 54 81 43 3c e8 86 9d 3d 1b dd 95 bc
       0.0177906 0.01193269 0.07691747 -0.018293908

weight f4 [10, 64]
000000 ce 29 5a 3c 52 50 37 be 26 2c ac bd 92 eb f6 3d
       0.013315631 -0.17901734 -0.08406858 0.1205665
000010 68 4f d6 bd ea c7 d6 3d ac 2a 26 be 9c f3 c4 bd
       -0.10464364 0.10487349 -0.16227216 -0.09616777
000020 84 86 ae 3d b2 39 de 3d b3 d2 2f be 10 a1 bb 3d
       0.085217506 0.10850848 -0.17170219 0.091615796
000030 71 4e b5 3e 75 d7 0a 3c 7b a0 06 3e 33 b8 63 3d
       0.3541141 0.0084742205 0.13147156 0.055595588
000040 6e f9 ab 3d 61 bf d6 bd 96 0f 00 3d ee 80 ce bd
       0.08397184 -0.104857214 0.031264864 -0.10083185
000050 68 43 07 be ef e6 8e bd 77 e7 a1 bd 48 cf b4 bd
       -0.13209307 -0.06977641 -0.079054765 -0.08828598
000060 4c 81 4d be 5e df a3 bc 50 29 4f be 50 3a 06 3d
       -0.20068854 -0.02000397 -0.20230603 0.032770455
000070 e8 8f e8 bd 6f c3 7a be 6d a9 90 3e 78 b6 83 be
       -0.11355573 -0.24488614 0.28254262 -0.2572515
000080 c0 7c d0 bd 2d e0 b1 be 7f e6 06 be 30 23 f8 3d
       -0.10180044 -0.34741345 -0.13173865 0.121160865
000090 d5 2b 43 3e d7 9c 8f 3d a4 b1 97 bd 23 d5 49 3d
       0.1905969 0.07012337 -0.07406929 0.04927553
0000a0 a9 3f 9d be 8c b9 c7 3d b1 63 c4 3d b4 9d be bc
       -0.3071263 0.09752187 0.09589327 -0.023268558
0000b0 ac fe ac be aa 86 d4 3d 41 c8 09 be b7 bc 26 be
       -0.3378805 0.10377248 -0.13455297 -0.16282926
0000c0 d9 5c 4e 3e f0 08 d6 3d 36 4a 53 3e 72 68 4e be
       0.20152606 0.104509234 0.20633778 -0.2015703
0000d0 c9 82 db 3d c7 ea 0c be 90 2b 16 be ef b9 ad 3e
       0.10718305 -0.13761435 -0.14665055 0.3393092
0000e0 d2 9b 7f bc d5 4e 27 3e 15 4a 83 3e ce 59 a6 3b
       -0.015601115 0.16338666 0.25642458 0.0050766235
0000f0 cf d8 9f 3d a5 16 87 3e e2 d2 ca bd c3 02 8d 3d
       0.07805025 0.26384464 -0.09903504 0.068852924
000100 af 30 87 3c 61 7d 07 bd 65 ea 7e 3e e0 6b 24 3e
       0.016502706 -0.033078555 0.24894102 0.16056776
000110 78 1c 12 3d f3 e4 6d be 81 a2 f1 bd af c1 17 be
       0.03567168 -0.23231868 -0.11798573 -0.14819978
000120 f7 38 8c bd 30 71 83 be bc ba b7 bc 05 38 b1 3d
       -0.06846803 -0.25672293 -0.02242791 0.08653263
000130 40 d7 af bd 48 36 c1 bd a4 4a dd bc bc a6 8e 3e
       -0.085859776 -0.094341815 -0.02701313 0.27861583
000140 2d 79 c9 bd 8a d1 9c 3c c5 46 20 be cb 94 c5 3c
       -0.098375656 0.019142885 -0.15651996 0.024118802
000150 55 34 e8 3d dc cf 92 bd 97 df 77 3e 6d 34 96 bd
       0.113381065 -0.07168552 0.24206387 -0.07334218
000160 a3 05 3f 3e 13 11 6e 3e db 91 d2 3c 17 7d 01 be
       0.18654494 0.23248701 0.025704315 -0.12645374
000170 9f d5 3d be 64 38 6d 3d a9 8b 85 bb 25 9b 3c 3e
       -0.18538521 0.057915106 -0.0040754867 0.18418558
000180 c7 fc c5 3d 3e c4 d0 3e 34 9e 1f be e1 19 94 3d
       0.09667354 0.4077472 -0.15587693 0.072314985
000190 df 50 13 be 6d a1 26 3e 0f 55 14 be 8c 1c 1b 3e
       -0.14386319 0.16272517 -0.14485572 0.15147609
0001a0 e8 53 96 be 1d 57 c8 bd 97 2b ea bd a5 7c 75 3e
       -0.2936089 -0.097822405 -0.11434095 0.2397333
0001b0 99 77 6d 3e c7 93 84 be 1a fe 6a 3e 15 8e 59 be
       0.23190154 -0.25893995 0.22948495 -0.21245606
0001c0 48 df 95 bd 69 64 00 bd 7b 86 0f 3e c6 24 d0 bd
       -0.07317978 -0.03134576 0.14016144 -0.10163264
0001d0 6d 06 54 bb 52 81 e2 3d 9b 3e 08 3e 1d 17 6a bd
       -0.0032352463 0.11059822 0.13305132 -0.05715095
0001e0 65 12 e5 3d fa 3a a0 be 0f 29 88 be 88 9f 97 bc
       0.11185149 -0.31294996 -0.26593825 -0.018508688
0001f0 fc 99 58 be 19 48 5e be dc f1 00 3e 0b 95 be 3d
       -0.2115249 -0.2170719 0.12592262 0.093057714
000200 fd 33 f4 3b 52 80 63 3e 37 a4 0c 3c fb e6 7f 3d
       0.0074524865 0.22216919 0.008584074 0.06247614
000210 a6 d5 83 bd 4d 75 48 bd 60 f8 96 be 97 e4 50 3e
       -0.064372346 -0.04893999 -0.2948637 0.203997
000220 b8 c9 a0 3d fe 2e eb bd 9a 44 99 bd 39 8f 9e bd
       0.07850975 -0.114835724 -0.07483788 -0.07742161
000230 21 79 3d 3d 05 ab 98 bd ee 5e ea bd 3a 32 39 be
       0.046258096 -0.074544944 -0.11443888 -0.18085566
000240 71 11 a7 bd 36 72 80 3e 9e dd 88 3e d4 39 e9 3d
       -0.081576236 0.25087136 0.2673158 0.11387983
000250 9c cc 11 3e e5 bd 6a 3e a1 3c 9b bd c8 52 d8 3c
       0.14238209 0.22924002 -0.075799234 0.02640666
000260 2c 3f 85 be 22 9a 1a be 86 f6 a4 be 36 9b 9b bd
       -0.2602476 -0.1509786 -0.32219332 -0.075979635
000270 4e d0 77 3c 67 4c 92 3e 3c df 56 3d 5f 3f 26 be
       0.015125347 0.28573915 0.052458987 -0.16235112
000280 0e c9 55 3d 63 11 bb 3d ee 82 4c bd ab b7 e7 3c
       0.052193694 0.09134176 -0.04992955 0.028285822
000290 ad c8 84 3e 4c b9 e6 ba 3f b7 78 bd b8 19 0c 3e
       0.25934353 -0.001760283 -0.060721632 0.13681686
0002a0 a9 81 09 3e 0a d9 e4 3d 3c 7e d2 bc a7 e3 e0 bd
       0.13428368 0.111742094 -0.025694959 -0.10980921
0002b0 e4 a4 21 3e 4d c4 42 be cb 09 6e 3e 91 e5 7c be
       0.15785557 -0.19020195 0.23245923 -0.24696948
0002c0 c9 bb 44 3e 71 8d b6 3d c5 cd 82 3e f0 48 5f 3d
       0.1921226 0.089136966 0.25547615 0.054512918
0002d0 6a 3f 00 3e 9c fb 65 be c3 76 44 3e 57 91 31 3e
       0.1252419 -0.22459263 0.19185929 0.17340599
0002e0 04 7d 80 bd 3f 9b 73 3e 7c 15 6b 3d 85 33 de bd
       -0.06273845 0.2378969 0.057393536 -0.1084967
0002f0 a7 44 cf 3e eb 68 56 be 2e 7f d9 3d 01 cc 87 bd
       0.40482065 -0.2093846 0.10619961 -0.066307075
000300 3e 99 7d bd d4 61 3f 3d 36 78 cf bd 31 92 77 3e
       -0.06191372 0.046724156 -0.1013035 0.24176861
000310 70 9d 97 3d f8 bd 39 3e 49 95 89 3d ac 75 36 3d
       0.07403076 0.18138874 0.06717927 0.044545814
000320 2f 64 a0 3d 6c 1e 07 3e e8 8f 59 be c0 77 98 bd
       0.078316085 0.13195199 -0.21246302 -0.074447155
000330 2b f6 a4 be 94 2a fe 3d d4 ad 67 be bc d1 9f 3d
       -0.3221906 0.12410465 -0.22624904 0.078036755
000340 25 c6 9c be b2 74 49 3d c6 46 ab be 87 71 8d 3b
       -0.30619922 0.049183555 -0.33452433 0.004316512
000350 ba 48 eb 3d 82 22 19 3e aa fd e5 bd 93 9f 5f b8
       0.11488481 0.1495457 -0.11230023 -5.331596e-05
000360 82 55 3c bd c7 59 a2 be 24 e9 eb bd d9 02 aa 3e
       -0.045979984 -0.3170912 -0.115190774 0.33205298
000370 86 8d 41 bc 7c a6 8b 3d 40 c6 d3 3d 84 70 09 be
       -0.011813527 0.06818864 0.103405476 -0.13421828
000380 5c 9c 2e 3b b1 d0 d9 3e 47 08 7e 3d f3 51 6e 3e
       0.002664349 0.4254203 0.062019613 0.23273449
000390 ad 66 64 3e e8 18 fc bd b4 43 32 3d 7f cd b0 bd
       0.22304793 -0.12309438 0.043521598 -0.08632945
0003a0 d2 2e 2a 3d 39 64 1a 3d f3 97 96 3c a8 f2 ab bd
       0.041548558 0.037693236 0.018383002 -0.083958924
0003b0 ca 78 66 be 37 a3 1b be eb d7 54 3d 2f 2e 25 3d
       -0.22507015 -0.1519898 0.051963728 0.040327247
0003c0 53 66 d3 3c 7f ab 24 3d 3e a4 45 3e 22 f7 a5 3d
       0.025805628 0.040202614 0.19300935 0.081037775
0003d0 8b 85 dd bd 45 9d ae 3e c5 e4 95 3e 73 62 44 be
       -0.10816487 0.34104362 0.292761 -0.1917818
0003e0 71 09 ba 3c 7e 5d 9c 3e d3 ef 3b 3d 23 47 42 bd
       0.02270958 0.3054008 0.04588301 -0.047431123
0003f0 ce f9 24 be 9e 8a ad 3d c6 9f e1 3d bc 76 85 3c
       -0.16110918 0.08473705 0.110168025 0.016291969

bias f4 [10]
000000 ae 48 0f be 2b 7c b8 3d 0d 9a 46 3c d2 b7 3b 3c
       -0.13992569 0.09008058 0.0121216895 0.0114574
000010 87 70 9b bc af 20 90 bd df 40 e6 3c 3c 93 a4 3d
       -0.018974556 -0.07037484 0.028107105 0.08035895
000020 c1 b0 a6 3d 56 58 aa 3d
       0.08139182 0.0831763
